…
Standard Scaler preprocessing method applied
The new dimensions for the compressed HSI is: (610, 340, 40) obtained by Tucker
The new shape of the data is:  (207400, 19, 19, 40)
The new shape of the labels is:  (207400,)
The data shape for train is: (2138, 19, 19, 40)
The labels shape for train is: (2138,)
The data shape for test is: (40638, 19, 19, 40)
The labels shape for test is: (40638,)
Model: "sequential"
_________________________________________________________________
Layer (type)                 Output Shape              Param #   
=================================================================
conv3d (Conv3D)              (None, 15, 15, 17, 32)    19232     
_________________________________________________________________
batch_normalization (BatchNo (None, 15, 15, 17, 32)    128       
_________________________________________________________________
activation (Activation)      (None, 15, 15, 17, 32)    0         
_________________________________________________________________
conv3d_1 (Conv3D)            (None, 11, 11, 2, 64)     819264    
_________________________________________________________________
batch_normalization_1 (Batch (None, 11, 11, 2, 64)     256       
_________________________________________________________________
activation_1 (Activation)    (None, 11, 11, 2, 64)     0         
_________________________________________________________________
max_pooling3d (MaxPooling3D) (None, 5, 5, 2, 64)       0         
_________________________________________________________________
flatten (Flatten)            (None, 3200)              0         
_________________________________________________________________
dense (Dense)                (None, 300)               960300    
_________________________________________________________________
batch_normalization_2 (Batch (None, 300)               1200      
_________________________________________________________________
activation_2 (Activation)    (None, 300)               0         
_________________________________________________________________
dense_1 (Dense)              (None, 9)                 2709      
=================================================================
Total params: 1,803,089
Trainable params: 1,802,297
Non-trainable params: 792
_________________________________________________________________
Epoch 1/40

Epoch 00001: val_accuracy improved from -inf to 0.44348, saving model to /tmp/best_model.h5
Epoch 2/40

Epoch 00002: val_accuracy improved from 0.44348 to 0.91250, saving model to /tmp/best_model.h5
…
