2022-02-18 00:10:10.806013
The data shape for train is: (1537, 19, 19, 200)
The labels shape for train is: (1537,)
The data shape for test is: (8712, 19, 19, 200)
The labels shape for test is: (8712,)
Model: "sequential"
_________________________________________________________________
 Layer (type)                Output Shape              Param #   
=================================================================
 conv3d (Conv3D)             (None, 15, 15, 177, 32)   19232     
                                                                 
 batch_normalization (BatchN  (None, 15, 15, 177, 32)  128       
 ormalization)                                                   
                                                                 
 activation (Activation)     (None, 15, 15, 177, 32)   0         
                                                                 
 conv3d_1 (Conv3D)           (None, 11, 11, 162, 64)   819264    
                                                                 
 batch_normalization_1 (Batc  (None, 11, 11, 162, 64)  256       
 hNormalization)                                                 
                                                                 
 activation_1 (Activation)   (None, 11, 11, 162, 64)   0         
                                                                 
 max_pooling3d (MaxPooling3D  (None, 5, 5, 162, 64)    0         
 )                                                               
                                                                 
 flatten (Flatten)           (None, 259200)            0         
                                                                 
 dense (Dense)               (None, 300)               77760300  
                                                                 
 batch_normalization_2 (Batc  (None, 300)              1200      
 hNormalization)                                                 
                                                                 
 activation_2 (Activation)   (None, 300)               0         
                                                                 
 dense_1 (Dense)             (None, 16)                4816      
                                                                 
=================================================================
Total params: 78,605,196
Trainable params: 78,604,404
Non-trainable params: 792
_________________________________________________________________
Epoch 1/40

Epoch 1: val_accuracy improved from -inf to 0.36180, saving model to /tmp/best_model.h5
Epoch 2/40

Epoch 2: val_accuracy did not improve from 0.36180
…
