2022-02-18 09:39:55.431854
The data shape for train is: (6416, 19, 19, 103)
The labels shape for train is: (6416,)
The data shape for test is: (36360, 19, 19, 103)
The labels shape for test is: (36360,)
Model: "sequential"
_________________________________________________________________
 Layer (type)                Output Shape              Param #   
=================================================================
 conv3d (Conv3D)             (None, 15, 15, 80, 32)    19232     
                                                                 
 batch_normalization (BatchN  (None, 15, 15, 80, 32)   128       
 ormalization)                                                   
                                                                 
 activation (Activation)     (None, 15, 15, 80, 32)    0         
                                                                 
 conv3d_1 (Conv3D)           (None, 11, 11, 65, 64)    819264    
                                                                 
 batch_normalization_1 (Batc  (None, 11, 11, 65, 64)   256       
 hNormalization)                                                 
                                                                 
 activation_1 (Activation)   (None, 11, 11, 65, 64)    0         
                                                                 
 max_pooling3d (MaxPooling3D  (None, 5, 5, 65, 64)     0         
 )                                                               
                                                                 
 flatten (Flatten)           (None, 104000)            0         
                                                                 
 dense (Dense)               (None, 300)               31200300  
                                                                 
 batch_normalization_2 (Batc  (None, 300)              1200      
 hNormalization)                                                 
                                                                 
 activation_2 (Activation)   (None, 300)               0         
                                                                 
 dense_1 (Dense)             (None, 9)                 2709      
                                                                 
=================================================================
Total params: 32,043,089
Trainable params: 32,042,297
Non-trainable params: 792
_________________________________________________________________
Epoch 1/40

Epoch 1: val_accuracy improved from -inf to 0.49205, saving model to /tmp/best_model.h5
Epoch 2/40

Epoch 2: val_accuracy improved from 0.49205 to 0.68127, saving model to /tmp/best_model.h5
…
