…
The shape of the labels is: (145, 145)
Number of classes:  16
Standard Scaler preprocessing method applied
The new shape of the data is:  (21025, 19, 19, 200)
The new shape of the labels is:  (21025,)
The data shape for train is: (1024, 19, 19, 200)
The labels shape for train is: (1024,)
The data shape for test is: (9225, 19, 19, 200)
The labels shape for test is: (9225,)
Model: "sequential"
_________________________________________________________________
Layer (type)                 Output Shape              Param #   
=================================================================
conv3d (Conv3D)              (None, 15, 15, 177, 32)   19232     
_________________________________________________________________
batch_normalization (BatchNo (None, 15, 15, 177, 32)   128       
_________________________________________________________________
activation (Activation)      (None, 15, 15, 177, 32)   0         
_________________________________________________________________
conv3d_1 (Conv3D)            (None, 11, 11, 162, 64)   819264    
_________________________________________________________________
batch_normalization_1 (Batch (None, 11, 11, 162, 64)   256       
_________________________________________________________________
activation_1 (Activation)    (None, 11, 11, 162, 64)   0         
_________________________________________________________________
max_pooling3d (MaxPooling3D) (None, 5, 5, 162, 64)     0         
_________________________________________________________________
flatten (Flatten)            (None, 259200)            0         
_________________________________________________________________
dense (Dense)                (None, 300)               77760300  
_________________________________________________________________
batch_normalization_2 (Batch (None, 300)               1200      
_________________________________________________________________
activation_2 (Activation)    (None, 300)               0         
_________________________________________________________________
dense_1 (Dense)              (None, 16)                4816      
=================================================================
Total params: 78,605,196
Trainable params: 78,604,404
Non-trainable params: 792
_________________________________________________________________
Epoch 1/40

Epoch 00001: val_accuracy improved from -inf to 0.41886, saving model to /tmp/best_model.h5
Epoch 2/40

Epoch 00002: val_accuracy did not improve from 0.41886
Epoch 3/40
…
