…
The shape of the labels is: (512, 217)
Number of classes:  16
Standard Scaler preprocessing method applied
The new shape of the data is:  (111104, 19, 19, 204)
The new shape of the labels is:  (111104,)
The data shape for train is: (541, 19, 19, 204)
The labels shape for train is: (541,)
The data shape for test is: (53588, 19, 19, 204)
The labels shape for test is: (53588,)
Model: "sequential"
_________________________________________________________________
Layer (type)                 Output Shape              Param #   
=================================================================
conv3d (Conv3D)              (None, 15, 15, 181, 32)   19232     
_________________________________________________________________
batch_normalization (BatchNo (None, 15, 15, 181, 32)   128       
_________________________________________________________________
activation (Activation)      (None, 15, 15, 181, 32)   0         
_________________________________________________________________
conv3d_1 (Conv3D)            (None, 11, 11, 166, 64)   819264    
_________________________________________________________________
batch_normalization_1 (Batch (None, 11, 11, 166, 64)   256       
_________________________________________________________________
activation_1 (Activation)    (None, 11, 11, 166, 64)   0         
_________________________________________________________________
max_pooling3d (MaxPooling3D) (None, 5, 5, 166, 64)     0         
_________________________________________________________________
flatten (Flatten)            (None, 265600)            0         
_________________________________________________________________
dense (Dense)                (None, 300)               79680300  
_________________________________________________________________
batch_normalization_2 (Batch (None, 300)               1200      
_________________________________________________________________
activation_2 (Activation)    (None, 300)               0         
_________________________________________________________________
dense_1 (Dense)              (None, 16)                4816      
=================================================================
Total params: 80,525,196
Trainable params: 80,524,404
Non-trainable params: 792
_________________________________________________________________
Epoch 1/40

Epoch 00001: val_accuracy improved from -inf to 0.26887, saving model to /tmp/best_model.h5
Epoch 2/40

Epoch 00002: val_accuracy improved from 0.26887 to 0.29279, saving model to /tmp/best_model.h5
…
