…
The shape of the image is: (512, 217, 204)
The shape of the labels is: (512, 217)
Number of classes:  16
Standard Scaler preprocessing method applied
The new dimensions for the compressed HSI is: (512, 217, 40) obtained by Tucker
The data shape for train is: (5412, 40)
The labels shape for train is: (5412,)
The data shape for test is: (48717, 40)
The labels shape for test is: (48717,)
Model: "sequential"
_________________________________________________________________
Layer (type)                 Output Shape              Param #   
=================================================================
conv1d (Conv1D)              (None, 17, 20)            500       
_________________________________________________________________
max_pooling1d (MaxPooling1D) (None, 3, 20)             0         
_________________________________________________________________
flatten (Flatten)            (None, 60)                0         
_________________________________________________________________
dense (Dense)                (None, 100)               6100      
_________________________________________________________________
batch_normalization (BatchNo (None, 100)               400       
_________________________________________________________________
activation (Activation)      (None, 100)               0         
_________________________________________________________________
dense_1 (Dense)              (None, 16)                1616      
=================================================================
Total params: 8,616
Trainable params: 8,416
Non-trainable params: 200
_________________________________________________________________
Epoch 1/300

Epoch 00001: val_accuracy improved from -inf to 0.34068, saving model to /tmp/best_model.h5
Epoch 2/300

Epoch 00002: val_accuracy improved from 0.34068 to 0.52871, saving model to /tmp/best_model.h5
…
