…
Standard Scaler preprocessing method applied
The new dimensions for the compressed HSI is: (610, 340, 40) obtained by Tucker
The new shape of the data is:  (207400, 19, 19, 40)
The new shape of the labels is:  (207400,)
The data shape for train is: (1283, 19, 19, 40)
The labels shape for train is: (1283,)
The data shape for test is: (41493, 19, 19, 40)
The labels shape for test is: (41493,)
Model: "sequential"
_________________________________________________________________
Layer (type)                 Output Shape              Param #   
=================================================================
conv2d (Conv2D)              (None, 15, 15, 50)        50050     
_________________________________________________________________
activation (Activation)      (None, 15, 15, 50)        0         
_________________________________________________________________
conv2d_1 (Conv2D)            (None, 11, 11, 100)       125100    
_________________________________________________________________
activation_1 (Activation)    (None, 11, 11, 100)       0         
_________________________________________________________________
max_pooling2d (MaxPooling2D) (None, 5, 5, 100)         0         
_________________________________________________________________
flatten (Flatten)            (None, 2500)              0         
_________________________________________________________________
dense (Dense)                (None, 100)               250100    
_________________________________________________________________
activation_2 (Activation)    (None, 100)               0         
_________________________________________________________________
dense_1 (Dense)              (None, 9)                 909       
=================================================================
Total params: 426,159
Trainable params: 426,159
Non-trainable params: 0
_________________________________________________________________
Epoch 1/300

Epoch 00001: val_accuracy improved from -inf to 0.63124, saving model to /tmp/best_model.h5
Epoch 2/300

Epoch 00002: val_accuracy improved from 0.63124 to 0.71781, saving model to /tmp/best_model.h5
…
