…
Standard Scaler preprocessing method applied
The new dimensions for the compressed HSI is: (145, 145, 40) obtained by Tucker
The new shape of the data is:  (21025, 19, 19, 40)
The new shape of the labels is:  (21025,)
The data shape for train is: (1024, 19, 19, 40)
The labels shape for train is: (1024,)
The data shape for test is: (9225, 19, 19, 40)
The labels shape for test is: (9225,)
Model: "sequential_1"
_________________________________________________________________
Layer (type)                 Output Shape              Param #   
=================================================================
conv3d_1 (Conv3D)            (None, 15, 15, 17, 32)    19232     
_________________________________________________________________
batch_normalization_1 (Batch (None, 15, 15, 17, 32)    128       
_________________________________________________________________
activation_1 (Activation)    (None, 15, 15, 17, 32)    0         
_________________________________________________________________
conv3d_2 (Conv3D)            (None, 11, 11, 2, 64)     819264    
_________________________________________________________________
batch_normalization_2 (Batch (None, 11, 11, 2, 64)     256       
_________________________________________________________________
activation_2 (Activation)    (None, 11, 11, 2, 64)     0         
_________________________________________________________________
max_pooling3d_1 (MaxPooling3 (None, 5, 5, 2, 64)       0         
_________________________________________________________________
flatten_1 (Flatten)          (None, 3200)              0         
_________________________________________________________________
dense_1 (Dense)              (None, 300)               960300    
_________________________________________________________________
batch_normalization_3 (Batch (None, 300)               1200      
_________________________________________________________________
activation_3 (Activation)    (None, 300)               0         
_________________________________________________________________
dense_2 (Dense)              (None, 16)                4816      
=================================================================
Total params: 1,805,196
Trainable params: 1,804,404
Non-trainable params: 792
_________________________________________________________________
Train on 1024 samples, validate on 9225 samples
Epoch 1/50

Epoch 00001: val_accuracy improved from -inf to 0.37225, saving model to /tmp/best_model.h5
Epoch 2/50

Epoch 00002: val_accuracy improved from 0.37225 to 0.39371, saving model to /tmp/best_model.h5
…
