…
The shape of the labels is: (610, 340)
Number of classes:  9
Standard Scaler preprocessing method applied
The new shape of the data is:  (207400, 19, 19, 103)
The new shape of the labels is:  (207400,)
The data shape for train is: (4277, 19, 19, 103)
The labels shape for train is: (4277,)
The data shape for test is: (38499, 19, 19, 103)
The labels shape for test is: (38499,)
Model: "sequential_1"
_________________________________________________________________
Layer (type)                 Output Shape              Param #   
=================================================================
conv3d_1 (Conv3D)            (None, 15, 15, 80, 32)    19232     
_________________________________________________________________
batch_normalization_1 (Batch (None, 15, 15, 80, 32)    128       
_________________________________________________________________
activation_1 (Activation)    (None, 15, 15, 80, 32)    0         
_________________________________________________________________
conv3d_2 (Conv3D)            (None, 11, 11, 65, 64)    819264    
_________________________________________________________________
batch_normalization_2 (Batch (None, 11, 11, 65, 64)    256       
_________________________________________________________________
activation_2 (Activation)    (None, 11, 11, 65, 64)    0         
_________________________________________________________________
max_pooling3d_1 (MaxPooling3 (None, 5, 5, 65, 64)      0         
_________________________________________________________________
flatten_1 (Flatten)          (None, 104000)            0         
_________________________________________________________________
dense_1 (Dense)              (None, 300)               31200300  
_________________________________________________________________
batch_normalization_3 (Batch (None, 300)               1200      
_________________________________________________________________
activation_3 (Activation)    (None, 300)               0         
_________________________________________________________________
dense_2 (Dense)              (None, 9)                 2709      
=================================================================
Total params: 32,043,089
Trainable params: 32,042,297
Non-trainable params: 792
_________________________________________________________________
Train on 4277 samples, validate on 38499 samples
Epoch 1/50

Epoch 00001: val_accuracy improved from -inf to 0.21549, saving model to /tmp/best_model.h5
Epoch 2/50

Epoch 00002: val_accuracy improved from 0.21549 to 0.42656, saving model to /tmp/best_model.h5
…
